…
        "id": "a_3OMWaDaSox",
        "outputId": "d7e1601d-594d-4f1a-8259-a86642c1647e"
      },
      "source": [
        "model.summary()"
      ],
      "execution_count": 9,
      "outputs": [
        {
          "output_type": "stream",
          "name": "stdout",
          "text": [
            "Model: \"sequential\"\n",
            "_________________________________________________________________\n",
            "Layer (type)                 Output Shape              Param #   \n",
            "=================================================================\n",
            "rescaling_1 (Rescaling)      (None, 32, 32, 3)         0         \n",
            "_________________________________________________________________\n",
            "conv2d_3 (Conv2D)            (None, 32, 32, 16)        448       \n",
            "_________________________________________________________________\n",
            "max_pooling2d_3 (MaxPooling2 (None, 16, 16, 16)        0         \n",
            "_________________________________________________________________\n",
            "conv2d_4 (Conv2D)            (None, 16, 16, 32)        4640      \n",
            "_________________________________________________________________\n",
            "max_pooling2d_4 (MaxPooling2 (None, 8, 8, 32)          0         \n",
            "_________________________________________________________________\n",
            "conv2d_5 (Conv2D)            (None, 8, 8, 64)          18496     \n",
            "_________________________________________________________________\n",
            "max_pooling2d_5 (MaxPooling2 (None, 4, 4, 64)          0         \n",
            "_________________________________________________________________\n",
            "dropout_1 (Dropout)          (None, 4, 4, 64)          0         \n",
            "_________________________________________________________________\n",
            "flatten_1 (Flatten)          (None, 1024)              0         \n",
            "_________________________________________________________________\n",
            "dense_1 (Dense)              (None, 128)               131200    \n",
            "_________________________________________________________________\n",
            "dense_2 (Dense)              (None, 100)               12900     \n",
            "=================================================================\n",
            "Total params: 167,684\n",
            "Trainable params: 167,684\n",
            "Non-trainable params: 0\n",
            "_________________________________________________________________\n"
          ]
        }
      ]
    },
    {
      "cell_type": "code",
      "metadata": {
        "colab": {
…
